Model: "sequential"
_________________________________________________________________
Layer (type)                 Output Shape              Param #   
=================================================================
conv2d (Conv2D)              (None, 222, 222, 32)      896       
_________________________________________________________________
conv2d_1 (Conv2D)            (None, 220, 220, 32)      9248      
_________________________________________________________________
max_pooling2d (MaxPooling2D) (None, 110, 110, 32)      0         
_________________________________________________________________
conv2d_2 (Conv2D)            (None, 108, 108, 64)      18496     
_________________________________________________________________
conv2d_3 (Conv2D)            (None, 106, 106, 64)      36928     
_________________________________________________________________
max_pooling2d_1 (MaxPooling2 (None, 53, 53, 64)        0         
_________________________________________________________________
flatten (Flatten)            (None, 179776)            0         
_________________________________________________________________
dense (Dense)                (None, 64)                11505728  
_________________________________________________________________
dense_1 (Dense)              (None, 32)                2080      
_________________________________________________________________
dense_2 (Dense)              (None, 1)                 33        
=================================================================
Total params: 11,573,409
Trainable params: 11,573,409
Non-trainable params: 0
_________________________________________________________________
