Model: "sequential"
_________________________________________________________________
Layer (type)                 Output Shape              Param #   
=================================================================
conv2d (Conv2D)              (None, 222, 222, 32)      896       
_________________________________________________________________
conv2d_1 (Conv2D)            (None, 220, 220, 32)      9248      
_________________________________________________________________
max_pooling2d (MaxPooling2D) (None, 110, 110, 32)      0         
_________________________________________________________________
conv2d_2 (Conv2D)            (None, 108, 108, 64)      18496     
_________________________________________________________________
conv2d_3 (Conv2D)            (None, 106, 106, 64)      36928     
_________________________________________________________________
max_pooling2d_1 (MaxPooling2 (None, 53, 53, 64)        0         
_________________________________________________________________
conv2d_4 (Conv2D)            (None, 51, 51, 128)       73856     
_________________________________________________________________
conv2d_5 (Conv2D)            (None, 49, 49, 128)       147584    
_________________________________________________________________
spatial_dropout2d (SpatialDr (None, 49, 49, 128)       0         
_________________________________________________________________
max_pooling2d_2 (MaxPooling2 (None, 24, 24, 128)       0         
_________________________________________________________________
flatten (Flatten)            (None, 73728)             0         
_________________________________________________________________
dense (Dense)                (None, 64)                4718656   
_________________________________________________________________
dense_1 (Dense)              (None, 32)                2080      
_________________________________________________________________
dense_2 (Dense)              (None, 1)                 33        
=================================================================
Total params: 5,007,777
Trainable params: 5,007,777
Non-trainable params: 0
_________________________________________________________________
